…
 [  12  131  181 ...    0    0    0]
 [  12  495  175 ...    0    0    0]]
Model: "model"
__________________________________________________________________________________________________
 Layer (type)                Output Shape                 Param #   Connected to                  
==================================================================================================
 input_1 (InputLayer)        [(None, 45)]                 0         []                            
                                                                                                  
 token_and_position_embeddi  (None, 45, 128)              11520     ['input_1[0][0]']             
 ng (TokenAndPositionEmbedd                                                                       
 ing)                                                                                             
                                                                                                  
 transformer_block (Transfo  (None, 45, 128)              1417984   ['token_and_position_embedding
 rmerBlock)                                                         [0][0]',                      
                                                                     'transformer_block[0][0]',   
                                                                     'transformer_block[1][0]',   
                                                                     'transformer_block[2][0]',   
                                                                     'transformer_block[3][0]']   
                                                                                                  
 reshape (Reshape)           (None, 1, 5760)              0         ['transformer_block[4][0]']   
                                                                                                  
 dropout_2 (Dropout)         (None, 1, 5760)              0         ['reshape[0][0]']             
                                                                                                  
 dense_2 (Dense)             (None, 1, 1024)              5899264   ['dropout_2[0][0]']           
                                                                                                  
 dropout_3 (Dropout)         (None, 1, 1024)              0         ['dense_2[0][0]']             
                                                                                                  
 dense_3 (Dense)             (None, 1, 256)               262400    ['dropout_3[0][0]']           
                                                                                                  
 dropout_4 (Dropout)         (None, 1, 256)               0         ['dense_3[0][0]']             
 transformer_block (Transfo  (None, 45, 128)              1417984   ['token_and_position_embedding
 rmerBlock)                                                         [0][0]',                      
                                                                     'transformer_block[0][0]',   
                                                                     'transformer_block[1][0]',   
                                                                     'transformer_block[2][0]',   
                                                                     'transformer_block[3][0]']   
                                                                                                  
 reshape (Reshape)           (None, 1, 5760)              0         ['transformer_block[4][0]']   
                                                                                                  
 dropout_2 (Dropout)         (None, 1, 5760)              0         ['reshape[0][0]']             
                                                                                                  
 dense_2 (Dense)             (None, 1, 1024)              5899264   ['dropout_2[0][0]']           
                                                                                                  
 dropout_3 (Dropout)         (None, 1, 1024)              0         ['dense_2[0][0]']             
                                                                                                  
 dense_3 (Dense)             (None, 1, 256)               262400    ['dropout_3[0][0]']           
                                                                                                  
 dense_4 (Dense)             (None, 1, 64)                16448     ['dropout_4[0][0]']           
                                                                                                  
 dropout_5 (Dropout)         (None, 1, 64)                0         ['dense_4[0][0]']             
                                                                                                  
 dense_5 (Dense)             (None, 1, 16)                1040      ['dropout_5[0][0]']           
                                                                                                  
 dropout_6 (Dropout)         (None, 1, 16)                0         ['dense_5[0][0]']             
                                                                                                  
                                                                                                  
 dropout_4 (Dropout)         (None, 1, 256)               0         ['dense_3[0][0]']             
                                                                                                  
 dense_4 (Dense)             (None, 1, 64)                16448     ['dropout_4[0][0]']           
                                                                                                  
 dropout_5 (Dropout)         (None, 1, 64)                0         ['dense_4[0][0]']             
                                                                                                  
 dense_5 (Dense)             (None, 1, 16)                1040      ['dropout_5[0][0]']           
                                                                                                  
 dropout_6 (Dropout)         (None, 1, 16)                0         ['dense_5[0][0]']             
                                                                                                  
 dense_6 (Dense)             (None, 1, 1)                 17        ['dropout_6[0][0]']           
                                                                                                  
==================================================================================================
 dense_6 (Dense)             (None, 1, 1)                 17        ['dropout_6[0][0]']           
                                                                                                  
==================================================================================================
Total params: 7608673 (29.02 MB)
Trainable params: 7608673 (29.02 MB)
Non-trainable params: 0 (0.00 Byte)
__________________________________________________________________________________________________
…
 [  12 2690  233 ...    0    0    0]
 [  12 1865   11 ...    0    0    0]]
Model: "model"
__________________________________________________________________________________________________
 Layer (type)                Output Shape                 Param #   Connected to                  
==================================================================================================
 input_1 (InputLayer)        [(None, 45)]                 0         []                            
                                                                                                  
 transformer_block (Transfo  (None, 45, 128)              1417984   ['token_and_position_embedding
 rmerBlock)                                                         [0][0]',                      
                                                                     'transformer_block[0][0]',   
                                                                     'transformer_block[1][0]',   
                                                                     'transformer_block[2][0]',   
                                                                     'transformer_block[3][0]']   
                                                                                                  
 reshape (Reshape)           (None, 1, 5760)              0         ['transformer_block[4][0]']   
                                                                                                  
 dropout_2 (Dropout)         (None, 1, 5760)              0         ['reshape[0][0]']             
                                                                                                  
 dense_2 (Dense)             (None, 1, 1024)              5899264   ['dropout_2[0][0]']           
                                                                                                  
 dropout_3 (Dropout)         (None, 1, 1024)              0         ['dense_2[0][0]']             
                                                                                                  
 token_and_position_embeddi  (None, 45, 128)              11520     ['input_1[0][0]']             
 ng (TokenAndPositionEmbedd                                                                       
 ing)                                                                                             
                                                                                                  
 dense_3 (Dense)             (None, 1, 256)               262400    ['dropout_3[0][0]']           
                                                                                                  
 dropout_4 (Dropout)         (None, 1, 256)               0         ['dense_3[0][0]']             
                                                                                                  
 dense_4 (Dense)             (None, 1, 64)                16448     ['dropout_4[0][0]']           
                                                                                                  
 dropout_5 (Dropout)         (None, 1, 64)                0         ['dense_4[0][0]']             
                                                                                                  
 dense_5 (Dense)             (None, 1, 16)                1040      ['dropout_5[0][0]']           
                                                                                                  
 dropout_6 (Dropout)         (None, 1, 16)                0         ['dense_5[0][0]']             
                                                                                                  
 dense_6 (Dense)             (None, 1, 1)                 17        ['dropout_6[0][0]']           
                                                                                                  
==================================================================================================
 transformer_block (Transfo  (None, 45, 128)              1417984   ['token_and_position_embedding
 rmerBlock)                                                         [0][0]',                      
                                                                     'transformer_block[0][0]',   
                                                                     'transformer_block[1][0]',   
                                                                     'transformer_block[2][0]',   
                                                                     'transformer_block[3][0]']   
                                                                                                  
 reshape (Reshape)           (None, 1, 5760)              0         ['transformer_block[4][0]']   
                                                                                                  
 dropout_2 (Dropout)         (None, 1, 5760)              0         ['reshape[0][0]']             
                                                                                                  
 dense_2 (Dense)             (None, 1, 1024)              5899264   ['dropout_2[0][0]']           
                                                                                                  
 dropout_3 (Dropout)         (None, 1, 1024)              0         ['dense_2[0][0]']             
                                                                                                  
 dense_3 (Dense)             (None, 1, 256)               262400    ['dropout_3[0][0]']           
                                                                                                  
 dropout_4 (Dropout)         (None, 1, 256)               0         ['dense_3[0][0]']             
                                                                                                  
 dense_4 (Dense)             (None, 1, 64)                16448     ['dropout_4[0][0]']           
                                                                                                  
 dropout_5 (Dropout)         (None, 1, 64)                0         ['dense_4[0][0]']             
                                                                                                  
 dense_5 (Dense)             (None, 1, 16)                1040      ['dropout_5[0][0]']           
                                                                                                  
 dropout_6 (Dropout)         (None, 1, 16)                0         ['dense_5[0][0]']             
                                                                                                  
 dense_6 (Dense)             (None, 1, 1)                 17        ['dropout_6[0][0]']           
                                                                                                  
==================================================================================================
Total params: 7608673 (29.02 MB)
Trainable params: 7608673 (29.02 MB)
Non-trainable params: 0 (0.00 Byte)
__________________________________________________________________________________________________
…
